data.pth (torch, 13418 bytes, 6 tensors)

l1.weight f4 [8, 175]
-0.2797341 0.6046926 0.54818714 -0.58836854 0.21177602 -0.8325154 -0.104715265 0.9589068
-0.24981652 -0.07464151 -0.13334326 0.022818958 -0.75153893 0.25915977 -0.2488305 0.96126133
-0.54912037 0.12831342 -0.019197555 0.63756627 -0.11925018 -0.23782912 -0.14538485 0.51742244
-0.5559135 0.32996976 -0.072476126 -0.19560954 0.06909861 -0.20935975 -0.20631957 0.21224819
0.7269121 0.2715038 -0.21754889 -0.17281917 -0.38768184 0.10610378 -0.062316142 0.2786761
-0.13895816 0.25707772 -0.5531497 -0.382745 -1.728434 -0.1847184 0.4663928 -0.07728025
0.4315973 0.41930643 0.7609931 0.3531658 0.3453336 -1.6669917 -0.2847233 -0.7845817
-0.09410274 1.0520817 -0.18454744 1.1427972 0.76222855 0.005427073 -0.21133702 -0.6557714
-0.34816888 -0.119513355 -0.28569236 0.91353464 1.0503302 0.4393755 -0.55449617 -0.5485684
0.023457814 -0.10640515 0.7816259 -0.036779925 -0.09803218 -0.8060967 -0.6325429 -0.2751089
-0.16536613 0.024787715 -0.22311701 -0.018996883 -0.38232014 0.40137967 0.45203382 -0.24193987
-0.09057773 -0.1937026 0.84795433 0.3568436 -0.6324765 -0.63223916 0.51380926 0.5637545
-0.12471623 1.2584722 0.5293053 -0.24671787 -0.004028305 -0.11302634 -0.012824196 0.9594727
0.7669799 -0.17636645 0.30173108 0.2682935 -0.03378911 -0.30474707 0.007908424 0.48078683
-0.27660367 -0.53562164 0.21476091 0.2919938 1.3198283 0.18844512 -0.17591456 -0.03386334
-0.073279 0.16540071 1.2429085 -0.6324546 0.33660582 0.27226877 0.27600113 0.21017425
0.23312949 0.55364156 -0.02085944 -0.5656863 -0.17859176 -0.3140486 0.12716556 0.5007557
-0.6339743 0.17437673 0.46065053 -0.6506126 1.4316376 -0.49267918 -0.051836856 0.4850086
-0.0044786204 -0.3200241 -0.020821502 0.36552358 0.3121061 0.008217868 0.48191836 0.18160535
-0.26377514 -0.05453005 0.23812751 -0.62285626 0.2959737 0.15423536 -0.91983086 -0.24636666
0.13661392 -0.44951338 0.5127889 0.014871781 -0.25130317 -0.026007917 -0.59877855 0.20084842
-0.18813851 0.5348718 0.02855261 0.50730217 0.053136747 -0.35629117 -0.079951376 0.6092846
0.07990846 0.08331309 0.2917217 0.18876764 -0.021192724 0.34552464 -0.24560954 0.19267108
0.46514893 -0.009854925 0.20064268 -0.010757693 0.4169252 0.03218714 1.2447683 -0.32247484
0.2866739 0.9412813 0.7630103 0.29617277 -0.28530762 0.2554569 -1.2422125 1.1075001
0.09260223 -1.0577811 -0.2603795 0.9298265 0.6800413 0.17800456 0.73143 0.31965306
0.15112348 -1.0622358 0.21107465 1.7009592 0.21938194 0.21481836 0.46192467 0.02549133
0.7568111 1.1667554 0.0010276656 0.42093295 0.19965313 1.1442217 0.5749504 1.211102
1.146083 0.98707116 0.40857843 0.25254294 0.35373044 -0.4424441 0.22534089 0.24850862
-0.890452 0.48398852 -0.5587619 0.08145711 0.20805341 0.20600988 -0.09570706 -0.82092553
0.33080375 -0.30755764 0.048220765 -0.06496666 -0.2928578 0.04176135 0.0033593893 1.3436949
0.48511308 0.67906815 0.20642991 -0.018376142 -0.12241114 1.2783062 0.50611764 -0.013489452
00000000: 4f39 8fbe 22cd 1a3f fe55 0c3f 529f 16bf
00000010: d0db 583e bb1f 55bf f574 d6bd eb7a 753f
00000020: e7cf 7fbe a6dd 98bd 238b 08be d3ee ba3c
00000030: db64 40bf 97b0 843e 6ccd 7ebe 3915 763f
00000040: 2793 0cbf 9864 033e 3144 9dbc 8b37 233f
00000050: 7039 f4bd 7a89 73be c4df 14be cc75 043f
00000060: 5950 0ebf ccf1 a83e 5d6e 94bd de4d 48be
00000070: 9283 8d3d 6762 56be 7045 53be 9757 593e
00000080: e916 3a3f 8c02 8b3e 23c5 5ebe 82f7 30be
00000090: 3c7e c6be f04c d93d 363f 7fbd a2ae 8e3e
000000a0: 0c4b 0ebe b19f 833e 389b 0dbf 27f7 c3be
000000b0: 533d ddbf d226 3dbe 09cb ee3e 1c45 9ebd
000000c0: 52fa dc3e 55af d63e 72d0 423f 26d2 b43e
000000d0: 91cf b03e fc5f d5bf 41c7 91be 59da 48bf
000000e0: f0b8 c0bd 9daa 863f 01fa 3cbe 2e47 923f
000000f0: 6921 433f 97d5 b13b bb68 58be a2e0 27bf
00000100: 3143 b2be 6bc3 f4bd 4546 92be 68dd 693f
00000110: 3871 863f d3f5 e03e 76f3 0dbf fb6e 0cbf
00000120: 9a2a c03c f1ea d9bd a318 483f 8ca6 16bd
00000130: 18c5 c8bd 5a5c 4ebf 55ee 21bf 13db 8cbe
00000140: bd55 29be 9b0f cb3c c978 64be 5a9f 9bbc
00000150: 77bf c3be a381 cd3e fa70 e73e 16bf 77be
00000160: d180 b9bd f959 46be 8913 593f 34b4 b63e
00000170: fbe9 21bf 6dda 21bf 0189 033f 3752 103f
00000180: 396b ffbd 9e15 a13f 8d80 073f 9ca3 7cbe
00000190: dfff 83bb 5b7a e7bd 941c 52bc 01a0 753f
000001a0: cb58 443f 6899 34be 7f7c 9a3e c45d 893e
000001b0: 7366 0abd cf07 9cbe 5692 013c b129 f63e
000001c0: ff9e 8dbe 801e 09bf 49ea 5b3e 3680 953e
000001d0: 22f0 a83f c2f7 403e f222 34be 49b4 0abd
000001e0: 4d13 96bd ce5e 293e a017 9f3f 8be8 21bf
000001f0: 9957 ac3e d066 8b3e 0550 8d3e eb37 573e
00000200: 7fb9 6e3e 74bb 0d3f 6be1 aabc d1d0 10bf
00000210: c2e0 36be faca a0be b037 023e 8731 003f
00000220: 244c 22bf d08f 323e 63da eb3e 8c8e 26bf
00000230: e73f b73f 7240 fcbe e252 54bd 0c53 f83e
00000240: 64c1 92bb 33da a3be db91 aabc e825 bb3e
00000250: 5fcc 9f3e 3da4 063c 01be f63e c1f6 393e
00000260: 890d 87be e75a 5fbd b3d7 733e 8273 1fbf
00000270: dd89 973e e0ef 1d3e 097a 6bbf 8b47 7cbe
00000280: 85e4 0b3e 9e26 e6be 2246 033f c5a8 733c
00000290: cfaa 80be 8e0e d5bc 8d49 19bf 35ab 4d3e
000002a0: 62a7 40be 5ced 083f 2ae7 e93c 8ede 013f
000002b0: eba5 593d cc6b b6be 8cbd a3bd 13fa 1b3f
000002c0: 0ca7 a33d 0ea0 aa3d 8c5c 953e 4e4c 413e
000002d0: 5d9c adbc 9be8 b03e 1181 7bbe 914b 453e
000002e0: 0028 ee3e 8d76 21bc 4675 4d3e 0941 30bc
000002f0: 3877 d53e aad6 033d 9154 9f3f 6c1b a5be
00000300: ecc6 923e d0f7 703f a554 433f f5a3 973e
00000310: d713 92be 3fcb 823e d200 9fbf 90c2 8d3f
00000320: 3da6 bd3d 5f65 87bf 7650 85be 1c09 6e3f
00000330: 3017 2e3f d446 363e ff3e 3b3f 91a9 a33e
00000340: 1dc0 1a3e 58f7 87bf f423 583e 08b9 d93f
00000350: a9a5 603e 58f9 5b3e 6481 ec3e 32d3 d03c
00000360: 5fbe 413f 3e58 953f bcb2 863a 8684 d73e
00000370: df71 4c3e db75 923f f32f 133f 6405 9b3f
00000380: d9b2 923f b2b0 7c3f 3131 d13e 4f4d 813e
00000390: 281c b53e 0888 e2be c3bf 663e 0b79 7e3e
000003a0: aaf4 63bf 58cd f73e 050b 0fbf fcd2 a63d
000003b0: f40b 553e 41f4 523e 1002 c4bd 2d28 52bf
000003c0: 1c5f a93e 3278 9dbe 2383 453d 3e0d 85bd
000003d0: 75f1 95be f30d 2b3d 3329 5c3b 32fe ab3f
000003e0: be60 f83e 69d7 2d3f 5d62 533e 9089 96bc
000003f0: b1b2 fabd 8a9f a33f ed90 013f dd02 5dbc

l1.bias f4 [8]
0.632349 1.2590837 0.46907043 0.95579946 0.46469495 1.3728098 1.245448 0.5896571
00000000: a0e1 213f a829 a13f 002a f03e 46af 743f
00000010: 7fec ed3e 3bb8 af3f d76a 9f3f c5f3 163f

l2.weight f4 [8, 8]
1.4182793 -1.1657324 0.469455 -0.5723885 1.5959226 1.0023161 -0.1709458 0.6163996
1.7230203 0.10543382 -0.894481 0.23767108 1.5508404 1.4148755 -0.35992274 -1.0768785
1.6711758 2.073647 1.3005878 0.22434151 0.43262324 -0.4966917 1.4273826 -0.9419849
2.834282 0.326354 1.7631211 -0.7838306 0.25042894 -0.22338921 1.0742704 1.9137235
-1.4746813 1.0835484 0.38389954 -1.6057597 -0.0105775 1.5677092 0.7150613 -0.39224336
-1.0207669 -0.02594667 2.1524818 0.4636228 1.1435727 0.59857327 -1.0693296 1.1598761
-0.025794575 1.1708052 -1.156942 2.337966 -0.44218904 0.61130047 0.6282652 0.97387683
0.06693783 -1.3256491 -0.041444145 1.983681 -0.8730906 1.2995772 2.905842 1.3358183
00000000: 2d8a b53f b836 95bf 685c f03e 0e88 12bf
00000010: 3147 cc3f e54b 803f 6a0c 2fbe 5dcc 1d3f
00000020: ee8b dc3f b0ed d73d b5fc 64bf 0c60 733e
00000030: f081 c63f a41a b53f cb47 b8be 28d7 89bf
00000040: 17e9 d53f a2b6 0440 a979 a63f c8b9 653e
00000050: cb80 dd3e 604e febe 79b4 b63f ec25 71bf
00000060: e064 3540 df17 a73e f4ad e13f 1fa9 48bf
00000070: 3938 803e 24c0 64be b181 893f e4f4 f43f
00000080: 5bc2 bcbf b7b1 8a3f 7b8e c43e 8989 cdbf
00000090: 404d 2dbc b2aa c83f 420e 373f 1fd4 c8be
000000a0: 7da8 82bf 1c8e d4bc 43c2 0940 f85f ed3e
000000b0: 9760 923f 193c 193f cbdf 88bf d276 943f
000000c0: 254f d3bc f2dc 953f ad16 94bf 3ca1 1540
000000d0: 9a66 e2be 307e 1c3f fdd5 203f fe4f 793f
000000e0: b316 893d dfae a9bf 56c1 29bd 42e9 fd3f
000000f0: de82 5fbf 8c58 a63f 51f9 3940 18fc aa3f

l2.bias f4 [8]
-0.11387127 1.0722996 0.67687917 -0.52165794 1.1128732 0.13790059 0.7491316 0.6072384
00000000: 5735 e9bd 1d41 893f f447 2d3f 608b 05bf
00000010: a172 8e3f d035 0d3e 17c7 3f3f fa73 1b3f

l3.weight f4 [30, 8]
0.33734578 -0.019720752 -3.3247812 -0.19795835 0.5792096 0.33831212 -1.4495912 -0.2560757
0.06834156 -0.5645674 -1.0112957 0.39666703 0.18727873 0.63535225 -3.2236385 -0.81191355
0.7696574 0.64139205 -3.482929 -1.7916075 -0.85550433 0.23923154 -0.23421966 -0.6753288
0.3655038 0.18218365 -0.9410326 0.008396989 -1.4772867 0.593214 -1.1698889 -0.9636777
-3.5854752 -0.00010896305 0.04516117 -1.0383277 -0.3635517 0.6249915 0.3532653 -0.9239858
-0.87654895 -0.7121913 0.35779536 0.4886639 -1.6770456 0.47782624 -1.2664627 -0.9791413
-2.4502175 -2.1533499 0.43737388 -0.5205497 -2.3456752 -2.6486943 0.8331349 0.060786758
-3.2893484 -3.0501337 0.10230105 0.75702155 -2.1562786 0.14007543 -0.35929883 0.030934766
-1.1581107 -2.1901968 -2.7021444 0.051536392 -2.09757 0.69133466 0.23131606 0.5256859
-0.20399088 -2.5355222 -0.7973387 0.53308874 -0.7184698 0.7632389 -1.7864811 0.12908229
0.4445136 0.7947457 -0.22741178 0.02513968 -0.96557134 -1.8044609 -1.7105455 -0.5418524
0.4818896 0.5598727 -0.4309612 -0.30485052 0.06807821 0.017718663 -4.8612924 -0.7580059
-0.3873486 -0.29525453 -0.44537425 -0.14937869 0.37535307 -2.8039324 -1.1184525 0.54413986
-0.5736339 -0.10740448 -0.12160799 -0.41782945 0.33492243 0.19949698 -1.7858671 -0.19115603
-1.209827 -0.54129785 0.7450139 0.9853214 -0.40531778 -2.006191 -1.2392541 -1.688115
-0.2685042 -1.2159917 0.3537691 0.54682326 0.6930988 0.20111965 -2.962331 -2.1338181
0.3800421 0.4208638 -0.27620867 -0.27322304 0.34538418 0.15266648 -1.3891199 -3.496327
0.059049036 0.666227 -0.9884953 -1.6182809 0.5950491 0.30164343 -0.96472615 -1.3825961
-0.72596973 -0.88435936 -2.3571153 0.44022828 -2.6123433 -1.2907857 0.075042196 0.7386828
-0.018277615 -0.288335 -0.93233097 0.51237595 -2.4214988 -0.11321358 -1.0822331 0.036994513
-2.8785088 -1.0955646 -1.9749017 -0.7559687 -0.4468898 -0.85901845 0.86126405 0.8809187
-1.4899814 -0.2789147 -0.5457066 -0.06507224 -1.7660384 -0.08303369 0.067522734 0.19751959
-0.7165363 0.16907115 -4.787094 -1.4101313 0.40433484 0.17767212 0.06647327 0.38841587
0.093800336 -0.18902947 -2.0539894 0.16865648 -0.46508586 -0.20639154 -0.24261141 -0.001088499
-4.1761827 -0.040447265 0.36680603 -3.8691878 -0.2751002 -2.743467 0.8169639 0.121112026
-0.84083056 0.1696208 -0.4299445 -3.110921 0.34801012 -0.5459985 -0.27706486 0.30024284
-3.834908 0.49408525 0.4286894 0.021889778 0.8318656 -3.4101076 -0.3391988 -0.66820246
-1.6022829 -2.189718 0.28865063 0.28043675 0.80712503 -0.6140045 -0.7715789 -0.3775007
-3.1098135 0.5533631 0.16701818 -3.129482 1.3152573 -0.8836448 0.5807294 -3.387837
-0.3717018 1.061707 0.11932853 0.25039235 -0.06176546 -2.6157427 -0.008121329 -3.4917018
00000000: 96b8 ac3e 6a8d a1bc 37c9 54c0 98b5 4abe
00000010: 1547 143f 3f37 ad3e 348c b9bf 5b1c 83be
00000020: a9f6 8b3d 7d87 10bf 2372 81bf f117 cb3e
00000030: ffc5 3f3e 72a6 223f 1850 4ec0 91d9 4fbf
00000040: 4408 453f 4532 243f 4fe8 5ec0 6553 e5bf
00000050: 5502 5bbf 1df9 743e 47d7 6fbe 59e2 2cbf
00000060: 5023 bb3e 5a8e 3a3e 83e7 70bf 8693 093c
00000070: bb17 bdbf dfdc 173f ebbe 95bf 95b3 76bf
00000080: 6d78 65c0 1883 e4b8 ebfa 383d ece7 84bf
00000090: 7323 babe 71ff 1f3f 30df b43e 558a 6cbf
000000a0: 8365 60bf 2b52 36bf f430 b73e 2832 fa3e
000000b0: 6ea9 d6bf a4a5 f43e 731b a2bf 01a9 7abf
000000c0: 5dd0 1cc0 7cd0 09c0 78ef df3e bf42 05bf
000000d0: 8b1f 16c0 3584 29c0 5448 553f 89fb 783d
000000e0: af84 52c0 6435 43c0 3783 d13d 2acc 413f
000000f0: 7800 0ac0 ef6f 0f3e 04f6 b7be e86a fd3c
00000100: f93c 94bf 2f2c 0cc0 efef 2cc0 d317 533d
00000110: 963e 06c0 4ffb 303f 1ede 6c3e 5a93 063f
00000120: fce2 50be ff45 22c0 641e 4cbf 8178 083f
00000130: a3ed 37bf a063 433f 6aab e4bf 262e 043e
00000140: 4997 e33e 7474 4b3f a2de 68be bbf1 cd3c
00000150: af2f 77bf 93f8 e6bf 28f3 dabf d7b6 0abf
00000160: 3cba f63e d153 0f3f f2a6 dcbe 5e15 9cbe
00000170: 976c 8b3d bb26 913c b58f 9bc0 ad0c 42bf
00000180: 8e52 c6be 9a2b 97be 1808 e4be baf6 18be
00000190: 472e c03e a173 33c0 7429 8fbf c04c 0b3f
000001a0: acd9 12bf e1f6 dbbd 9c0d f9bd beed d5be
000001b0: f47a ab3e f048 4c3e 4b97 e4bf 68be 43be
000001c0: 9cdb 9abf 7f92 0abf 3bb9 3e3f 063e 7c3f
000001d0: d085 cfbe 6f65 00c0 e19f 9ebf 2714 d8bf
000001e0: 6279 89be 9ea5 9bbf 3921 b53e 9cfc 0b3f
000001f0: ec6e 313f 4ff2 4d3e d596 3dc0 7a90 08c0
00000200: e194 c23e 767b d73e 396b 8dbe e4e3 8bbe
00000210: 32d6 b03e 9a54 1c3e aece b1bf d2c3 5fc0
00000220: 67dd 713d da8d 2a3f 070e 7dbf d423 cfbf
00000230: 2355 183f 0271 9a3e 4bf8 76bf e9f8 b0bf
00000240: 27d9 39bf 6065 62bf fada 16c0 9a65 e13e
00000250: a230 27c0 7738 a5bf b9af 993d 511a 3d3f
00000260: f0ba 95bc a5a0 93be 3ead 6ebf 122b 033f
00000270: d6f9 1ac0 85dc e7bd 9d86 8abf 8f87 173d
00000280: 7d39 38c0 763b 8cbf 94c9 fcbf 2a87 41bf
00000290: bdce e4be a2e8 5bbf cd7b 5c3f e383 613f
000002a0: b6b7 bebf e8cd 8ebe 6eb3 0bbf 9844 85bd
000002b0: 8c0d e2bf 910d aabd 5c49 8a3d 9342 4a3e
000002c0: ec6e 37bf fd20 2d3e e02f 99c0 2f7f b4bf
000002d0: fa04 cf3e aeef 353e 2323 883d 72de c63e
000002e0: 641a c03d f190 41be 9074 03c0 49b4 2c3e
000002f0: bc1f eebe 4e58 53be 206f 78be f7ab 8eba
00000300: 4aa3 85c0 08ac 25bd 00ce bb3e c6a0 77c0
00000310: efd9 8cbe f794 2fc0 8c24 513f 9509 f83d
00000320: ac40 57bf 13b1 2d3e af21 dcbe 5419 47c0
00000330: 622e b23e 8fc6 0bbf 72db 8dbe 6eb9 993e
00000340: 226f 75c0 bef8 fc3e 2d7d db3e 3152 b33c
00000350: 25f5 543f 343f 5ac0 77ab adbe 510f 2bbf
00000360: 9b17 cdbf 5724 0cc0 04ca 933e 6895 8f3e
00000370: bf9f 4e3f 662f 1dbf 3286 45bf c647 c1be
00000380: 2f07 47c0 34a9 0d3f d006 2b3e 6f49 48c0
00000390: 5a5a a83f 8c36 62bf afaa 143f 52d2 58c0
000003a0: b34f bebe 04e6 873f 8462 f43d 6d33 803e
000003b0: c7fd 7cbd 5468 27c0 530f 05bc 0b78 5fc0

l3.bias f4 [30]
-0.1590215 -0.574364 0.05023387 0.036322232 -0.14250118 -0.09274081 0.17164828 0.07867338
0.07529738 -0.15308157 -0.11436708 0.43104574 -0.2582323 -0.38388693 -0.16618778 -0.14501108
-0.78882223 -0.13352108 -0.051679403 -0.8013906 0.17144056 0.20711377 0.09344009 -0.71773124
0.17946266 -0.02340619 -0.06786636 0.3710293 0.26940173 0.06914984
00000000: 88d6 22be 8509 13bf 08c2 4d3d 9fc6 143d
00000010: d4eb 11be e5ee bdbd 91c4 2f3e 821f a13d
00000020: 8335 9a3d 6ac1 1cbe 4a39 eabd 07b2 dc3e
00000030: 0637 84be d48c c4be 212d 2abe c97d 14be
00000040: 41f0 49bf c0b9 08be c8ad 53bd ef27 4dbf
00000050: 1d8e 2f3e a215 543e 855d bf3d 3cbd 37bf
00000060: 0fc5 373e 57be bfbc 85fd 8abd 8df7 bd3e
00000070: 06ef 893e 6e9e 8d3d
