data.pth (torch, 13418 bytes, 6 tensors)

l1.weight f4 [8, 175]
0.36490887 0.51401776 0.5475998 0.38888788 0.7620445 0.46159434 0.56841505 0.38966706
-0.74518996 0.1184574 -0.21254258 0.36820862 0.32596248 -0.35866067 0.6421655 -1.2183936
-0.4772629 0.20554031 0.1892153 -0.36512023 -0.085056745 -0.6569882 0.85862917 0.6738426
1.635415 0.011227774 -1.3379544 -0.5455665 0.028480241 1.1851043 -0.6620193 0.320748
0.034183472 0.23670125 -0.1288867 -0.5878835 2.2005155 0.121327944 0.602602 -0.35433957
0.5733359 0.30865252 1.6859032 0.3658584 0.6422069 -0.1263846 0.4840458 0.27420324
0.46330655 0.40799314 0.45099673 0.29738942 -0.09113047 1.3492775 -0.011742303 1.2754385
-0.12783374 -0.567292 1.0295023 0.6825344 -1.1151408 0.30035838 0.83484286 0.34916037
-0.76035315 0.35721353 0.27492675 0.185798 0.36083803 0.13364623 -0.15859413 -0.12740137
0.16534033 0.8936405 -0.41199237 -0.18066424 -0.14838947 0.098563366 0.62025803 0.22424412
-0.12186939 0.26574093 -0.22022514 0.2215653 1.0040613 0.8934867 -0.021834549 -0.6158112
-0.85446036 0.5406767 1.7335745 0.6080977 1.2231072 -0.993518 0.85079676 0.9457708
-0.27107185 1.3820124 0.66827416 -0.9950848 0.073202685 0.035476808 0.22389121 1.3475454
0.90010256 -0.6556777 0.051227476 -0.13398565 0.23865223 0.38305864 0.15987128 0.53099585
0.4442002 0.66933423 0.19907168 0.4697197 1.2133007 0.7930569 0.04135464 0.62036294
0.12990144 0.52176404 1.8554934 1.3386323 0.4956551 0.5063797 -0.35122204 0.38811013
0.20989053 0.6464861 0.37176606 -0.69397205 0.14543453 -0.64218223 -0.09027415 0.8699826
-0.96141535 0.18043126 -1.2288651 -0.92603105 -0.11101537 0.01597008 0.16645221 1.0223273
1.492155 -0.68623674 -0.23222923 0.17209224 0.3838092 0.021170534 1.0644774 0.2565919
-0.40116444 1.4957193 0.017629325 -0.8911197 -0.31804046 0.50027585 -0.119678415 -0.31683123
0.34475783 -0.49359068 0.89820033 0.09814542 -1.1966028 0.1224647 -0.9729622 0.19172339
-0.19127153 0.89531714 0.06130909 0.50417095 0.55031747 0.7099552 0.4632008 -0.31774718
-0.056269873 -0.075672075 0.29856804 -0.08241144 1.1823052 0.1804946 0.280101 -0.3203286
-0.061247975 0.0004818706 0.031201312 -0.15875462 0.07382626 0.2399885 0.38098255 -0.11735265
-0.29309303 1.2244251 0.574525 -0.040701136 -0.039262526 -0.24413522 -0.6901597 1.0984095
0.09710746 0.58033067 -0.035592988 -0.7516543 -0.2538553 -0.28186384 0.7526728 0.6962399
0.044242933 0.87829834 -0.27944475 -0.8849795 -0.3442837 0.043380212 0.059030276 -0.31701833
0.7077659 1.0860868 1.5923699 0.8547384 -0.15350796 1.2289973 -0.039096028 1.1710087
1.1503602 -0.75491744 0.48046163 0.14718644 -1.8259429 -0.2590327 -0.41207865 -0.15730144
1.2272043 0.60742706 1.1370472 0.95036304 -0.030211475 -0.2419603 -0.04342419 -0.43158737
-0.43350703 0.14417654 0.92129743 0.81752676 0.04084821 -0.17288412 -0.24460797 -0.7816631
0.620916 0.47745073 0.028751632 0.14500989 -0.02168966 -0.6784004 -0.27309185 0.14940731
00000000: 56d5 ba3e ab96 033f 802f 0c3f 501c c73e
00000010: 5915 433f 1856 ec3e a683 113f 7182 c73e
00000020: c5c4 3ebf cb99 f23d c3a4 59be d785 bc3e
00000030: 8ee4 a63e 5fa2 b7be f564 243f 52f4 9bbf
00000040: ce5b f4be 2979 523e a8c1 413e 0af1 babe
00000050: 3b32 aebd 6130 28bf 1fcf 5b3f f380 2c3f
00000060: 4755 d13f b3f4 373c 1742 abbf 3faa 0bbf
00000070: 654f e93c 7fb1 973f 197a 29bf 1539 a43e
00000080: f803 0c3d d061 723e e0fa 03be 887f 16bf
00000090: 3fd5 0c40 c97a f83d 2044 1a3f ff6b b5be
000000a0: 24c6 123f b407 9e3e adcb d73f cb51 bb3e
000000b0: ac67 243f f76a 01be dad4 f73e 5e64 8c3e
000000c0: 8436 ed3e 7ae4 d03e 0be9 e63e 6d43 983e
000000d0: 9da2 babd 20b5 ac3f ca62 40bc 9241 a33f
000000e0: d9e6 02be 0c3a 11bf bbc6 833f 93ba 2e3f
000000f0: efbc 8ebf 93c8 993e 43b8 553f 26c5 b23e
00000100: 81a6 42bf b1e4 b63e 33c3 8c3e d541 3e3e
00000110: c3bf b83e 8fda 083e 8066 22be 8175 02be
00000120: fa4e 293e a0c5 643f aaf0 d2be 0c00 39be
00000130: 69f3 17be 97db c93d 3bc9 1e3f 40a0 653e
00000140: a996 f9bd 320f 883e b382 61be 04e2 623e
00000150: 1585 803f 8bbb 643f 5ede b2bc cea5 1dbf
00000160: eabd 5abf ca69 0a3f c5e5 dd3f 4aac 1b3f
00000170: c78e 9c3f 3257 7ebf d1cd 593f 091e 723f
00000180: eec9 8abe c8e5 b03f 0414 2b3f e1bd 7ebf
00000190: 4aeb 953d 2150 113d bd43 653e 5e7c ac3f
000001a0: 1f6d 663f 7eda 27bf e7d3 513d 8933 09be
000001b0: 4061 743e 4320 c43e 4cb5 233e 58ef 073f
000001c0: 356e e33e 7d59 2b3f 72d9 4b3e 1a7f f03e
000001d0: 704d 9b3f c705 4b3f 7c63 293d 1bd0 1e3f
000001e0: e204 053e 5492 053f cf80 ed3f 4e58 ab3f
000001f0: 81c6 fd3e 1aa2 013f 60d3 b3be 5fb6 c63e
00000200: 8bed 563e 1d80 253f 1f58 be3e 27a8 31bf
00000210: caec 143e 0e66 24bf a7e1 b8bd 2eb7 5e3f
00000220: 511f 76bf f9c2 383e 744b 9dbf 5f10 6dbf
00000230: 075c e3bd afd3 823c 7372 2a3e 9fdb 823f
00000240: effe be3f 36ad 2fbf 80cd 6dbe f338 303e
00000250: a482 c43e d46d ad3c cc40 883f 0360 833e
00000260: 6d65 cdbe bb73 bf3f 606b 903c 6c20 64bf
00000270: 33d6 a2be 1412 003f f519 f5bd b437 a2be
00000280: 1984 b03e ebb7 fcbe 75f0 653f 7700 c93d
00000290: 482a 99bf c6ce fa3d 0d14 79bf 2353 443e
000002a0: afdc 43be 8133 653f 3e1f 7b3d 5911 013f
000002b0: 9be1 0c3f a0bf 353f a828 ed3e c2af a2be
000002c0: 3d7b 66bd f6f9 9abd e9dd 983e 54c7 a8bd
000002d0: c755 973f 94d3 383e 6669 8f3e 1c02 a4be
000002e0: 28df 7abd 94a3 fc39 e599 ff3c 9290 22be
000002f0: 3932 973d 8cbf 753e 2510 c33e 9656 f0bd
00000300: 4a10 96be f6b9 9c3f 1214 133f 3cb6 26bd
00000310: bed1 20bd 95fe 79be 4eae 30bf af98 8c3f
00000320: 47e0 c63d 8d90 143f f4c9 11bd 6b6c 40bf
00000330: 52f9 81be 7550 90be 2aaf 403f c73c 323f
00000340: 1438 353d 29d8 603f 6213 8fbe 048e 62bf
00000350: f445 b0be 73af 313d bbc9 713d 3a50 a2be
00000360: 2530 353f e404 8b3f c7d2 cb3f 23d0 5a3f
00000370: 3131 1dbe c94f 9d3f 2823 20bd 9de3 953f
00000380: 013f 933f 4542 41bf 11ff f53e 0bb8 163e
00000390: 7fb8 e9bf ef9f 84be f9fb d2be a113 21be
000003a0: 0815 9d3f 5780 1b3f c38a 913f fe4a 733f
000003b0: 0e7e f7bc 71c4 77be 90dd 31bd 05f9 dcbe
000003c0: a2f4 ddbe 04a3 133e 26da 6b3f 6f49 513f
000003d0: 7450 273d 8908 31be 837a 7abe 131b 48bf
000003e0: 5af4 1e3f 6c74 f43e 8b88 eb3c 797d 143e
000003f0: 84ae b1bc a6ab 2dbf b2d2 8bbe 3bfe 183e

l1.bias f4 [8]
1.3240858 0.6217014 0.56933653 0.8586694 0.5780215 0.54816455 0.64708465 1.478517
00000000: a57b a93f d327 1f3f 0ac0 113f c2d1 5b3f
00000010: 38f9 133f 8354 0c3f 57a7 253f 0c40 bd3f

l2.weight f4 [8, 8]
-0.3524672 0.32284316 -0.7466884 0.75939935 1.5353175 -1.7563531 0.58440185 1.6489848
-0.33154804 0.8452769 1.8066673 -1.1003834 2.310413 2.240463 2.2442436 0.025223609
0.035280015 -0.17522982 -1.1148508 1.18191 1.6113316 1.7193761 2.2335804 -1.3577653
0.45404142 -0.3435096 1.8031478 0.36190423 -0.7849725 -0.93587255 1.9292737 3.050742
1.3464637 2.4856164 1.1955022 0.8058194 0.692615 0.92230433 -1.6786362 0.854305
0.007242582 0.17262287 0.043405272 -0.22143386 -0.041517485 0.08733217 -0.030946912 -0.27022246
1.5978621 -1.7382985 -1.1403537 -0.8619462 1.1880362 1.1585554 0.8803046 1.8768915
2.2088816 0.70092356 0.7859444 1.8337778 -0.05489782 -1.1949651 0.32084265 -0.875085
00000000: 9576 b4be b34b a53e f926 3fbf ff67 423f
00000010: 4985 c43f 2ed0 e0bf 5c9b 153f ef11 d33f
00000020: aac0 a9be 1164 583f e040 e73f 5dd9 8cbf
00000030: cedd 1340 bf63 0f40 b0a1 0f40 bea1 ce3c
00000040: c781 103d 726f 33be 6eb3 8ebf d448 973f
00000050: 1d40 ce3f 8414 dc3f fbf2 0e40 41cb adbf
00000060: 1e78 e83e 7ee0 afbe 8ccd e63f 834b b93e
00000070: f5f3 48bf 5895 6fbf 71f2 f63f 5b3f 4340
00000080: ec58 ac3f 5714 1f40 3706 993f 2e4a 4e3f
00000090: 374f 313f 231c 6c3f 8ddd d6bf bcb3 5a3f
000000a0: 2e53 ed3b 0dc4 303e bac9 313d 8fbf 62be
000000b0: 3d0e 2abd 35db b23d 6184 fdbc 995a 8abe
000000c0: bf86 cc3f 9180 debf 1cf7 91bf 82a8 5cbf
000000d0: 9211 983f 8b4b 943f a45b 613f fb3d f03f
000000e0: 515e 0d40 ba6f 333f a733 493f 3bb9 ea3f
000000f0: 89dc 60bd 9ef4 98bf 7d45 a43e 9205 60bf

l2.bias f4 [8]
0.2714325 -0.7308526 -0.13341206 0.19094735 0.14546199 -0.34390166 0.83142656 0.9037836
00000000: 33f9 8a3e 2819 3bbf 2c9d 08be b487 433e
00000010: fdf3 143e e113 b0be 5fd8 543f 5d5e 673f

l3.weight f4 [30, 8]
-1.2506356 0.37837207 0.45884767 0.13051845 -1.1746621 -0.32538447 -0.9020977 -0.3805228
0.2337968 0.41650924 0.7831028 -1.8963751 -1.9317988 -0.24994606 0.0532748 -1.2884715
0.98984367 -1.5668589 0.75501335 -3.7813065 0.21850166 -0.026896939 -2.8129401 0.5223797
0.9716527 -0.3952458 0.5733779 -2.4906347 -0.14161217 0.27533725 -0.52327013 -0.41505474
-4.5231495 -1.4307935 -0.022643404 -1.8329 -0.111309744 -0.11384576 1.0603645 0.47539297
-0.5682074 0.4357986 -0.1922054 -3.8530078 0.30756128 0.26547793 -0.20471701 0.09971622
0.5425197 -0.99882525 -3.2479727 1.1707264 -1.609397 -0.08032401 0.60480225 -1.5004705
-0.5604713 -0.07772144 -0.8403452 0.4332523 -0.7382058 -0.3432516 0.6535625 -0.9172285
-3.4793358 0.34355703 -0.2971098 1.0463344 -0.9064749 -0.0919264 0.4645077 -2.29472
-0.91367066 0.47100675 0.3440414 -0.34311143 0.19497383 0.30656233 0.124935076 -2.8610656
0.44918922 0.21615878 -2.7928998 0.13525829 0.6451364 -0.35247073 -3.2983236 -0.39788976
0.83636814 -1.8002514 -0.3240586 -0.13541204 -0.3754049 -0.2203626 0.28489104 -0.23328143
-0.29836252 0.5545136 -0.51024055 0.5633364 -0.19851923 -0.06970751 -1.9211656 -0.7948324
0.5712136 -0.26533854 0.35025248 -0.36756477 -1.3937296 0.16568694 -0.077459626 -0.55815643
0.46868104 0.46365768 -1.8784215 0.31141755 0.096756496 -0.2689073 -0.5737817 -2.3016465
0.9503309 0.2879249 -0.32470077 -0.18362994 -1.4111218 -0.057402026 0.05098776 -3.1072533
-0.05383559 -1.89919 -0.13641526 -1.1121627 0.18538304 0.34457004 -0.43363658 0.56965315
-1.7382753 -4.265497 -0.5095251 0.26774698 0.13782676 0.21559668 -0.110560834 0.58976144
-1.1394405 -0.7077964 -0.08167815 0.88574415 -0.60429496 -0.21072029 -2.925779 0.6041356
0.19378538 -0.47373942 0.39501327 -0.30806786 -0.5668622 -0.35218197 -1.2686206 0.2224
-4.4290447 -0.5918603 0.7508831 -2.2461362 0.84665376 0.24442692 -2.1070316 0.40022454
-1.2968742 -0.1309294 0.10705682 -0.30300632 0.12746295 -0.21610384 0.16526026 -0.5262489
-2.9199417 -0.49437663 -3.5337183 0.19005091 0.6340199 -0.21435727 -3.4025345 0.8040997
-2.1491494 0.825788 -0.35107723 -0.31212482 0.29161653 -0.076916605 -2.6318183 0.11293475
0.27754107 -4.16513 -4.635291 0.16735446 0.43754417 -0.01980691 0.08430521 0.34242275
0.6762468 -3.4440203 -1.9921904 1.2199339 0.5078787 -0.021297392 -3.7193334 0.17321725
-2.9221916 0.702231 -2.839245 -0.52424765 0.8928395 -0.1352524 0.18496881 -0.5989183
-0.292489 -0.31572407 -2.420572 0.807181 -0.36556944 0.3421736 -0.3385676 0.13800389
-2.5263052 0.6805106 0.5487536 -2.4747705 -0.904339 0.32171237 1.0003731 -1.2810589
-2.6680362 -1.7564778 -3.4314694 0.00012256588 -0.06938565 0.083191216 1.5817423 0.21437779
00000000: d414 a0bf fcb9 c13e 15ee ea3e a1a6 053e
00000010: 545b 96bf cb98 a6be e0ef 66bf e2d3 c2be
00000020: 6e68 6f3e b340 d53e 6d79 483f 6bbc f2bf
00000030: 2f45 f7bf dcf1 7fbe ad36 5a3d a2ec a4bf
00000040: 6566 7d3f d58e c8bf 8e48 413f ed00 72c0
00000050: e6be 5f3e f856 dcbc 3607 34c0 adba 053f
00000060: 3bbe 783f a85d cabe e5c8 123f 8f66 1fc0
00000070: c802 11be 01f9 8c3e 08f5 05bf 0e82 d4be
00000080: a4bd 90c0 3e24 b7bf a97e b9bc 789c eabf
00000090: 5df6 e3bd f727 e9bd 06ba 873f b566 f33e
000000a0: 0a76 11bf fe20 df3e 7ed1 44be ae97 76c0
000000b0: ac78 9d3e b9ec 873e 56a1 51be 0438 cc3d
000000c0: 92e2 0a3f 03b3 7fbf c9de 4fc0 5dda 953f
000000d0: b900 cebf ea80 a4bd 52d4 1a3f 6b0f c0bf
000000e0: 0c7b 0fbf 6b2c 9fbd dd20 57bf 3fd3 dd3e
000000f0: 0efb 3cbf acbe afbe df4f 273f 7dcf 6abf
00000100: 70ad 5ec0 b5e6 af3e c71e 98be 49ee 853f
00000110: bd0e 68bf e943 bcbd f4d3 ed3e b1dc 12c0
00000120: 52e6 69bf cc27 f13e 3226 b03e 4dac afbe
00000130: 38a7 473e bdf5 9c3e f6dd ff3d b31b 37c0
00000140: 21fc e53e ba58 5d3e dfbe 32c0 2681 0a3e
00000150: a927 253f 0b77 b4be bc17 53c0 35b8 cbbe
00000160: 391c 563f a36e e6bf 02eb a5be 74a9 0abe
00000170: 1235 c0be bca6 61be 3ddd 913e 54e1 6ebe
00000180: f9c2 98be 9af4 0d3f 209f 02bf d036 103f
00000190: a048 4bbe d0c2 8ebd c1e8 f5bf 237a 4bbf
000001a0: 0e3b 123f 74da 87be 4b54 b33e 7331 bcbe
000001b0: bb65 b2bf d6a9 293e 27a3 9ebd 57e3 0ebf
000001c0: f6f6 ef3e 8a64 ed3e 1e70 f0bf 1f72 9f3e
000001d0: 4528 c63d 38ae 89be 5ce3 12bf 2d4e 13c0
000001e0: e348 733f e46a 933e 2e3f a6be 7d09 3cbe
000001f0: a49f b4bf 631e 6bbd 8bd8 503d 3ddd 46c0
00000200: b582 5cbd a818 f3bf 71b0 0bbe 595b 8ebf
00000210: 0dd5 3d3e 7c6b b03e 9d05 debe cad4 113f
00000220: ce7f debf f47e 88c0 3d70 02bf 2216 893e
00000230: 7522 0d3e 60c5 5c3e b86d e2bd 9bfa 163f
00000240: 30d9 91bf 2532 35bf e046 a7bd 21c0 623f
00000250: 13b3 1abf 0fc7 57be f73f 3bc0 a1a8 1a3f
00000260: ad6f 463e f98d f2be 2e3f ca3e 12bb 9dbe
00000270: e21d 11bf 3251 b4be 2962 a2bf d3bc 633e
00000280: bcba 8dc0 2884 17bf e039 403f b2c0 0fc0
00000290: 4dbe 583f 0d4b 7a3e 9bd9 06c0 3bea cc3e
000002a0: f9ff a5bf 5b12 06be 9b40 db3d a523 9bbe
000002b0: a685 023e 534a 5dbe fc39 293e 3fb8 06bf
000002c0: 53e0 3ac0 ef1e fdbe 7128 62c0 b59c 423e
000002d0: 214f 223f 7980 5bbe 20c3 59c0 7ad9 4d3f
000002e0: aa8b 09c0 d866 533f 65c0 b3be d3ce 9fbe
000002f0: c34e 953e 7486 9dbd b66f 28c0 564a e73d
00000300: dd19 8e3e bf48 85c0 4e54 94c0 f85e 2b3e
00000310: ca05 e03e 1a42 a2bc 36a8 ac3d 0952 af3e
00000320: 831e 2d3f d46a 5cc0 1800 ffbf cb26 9c3f
00000330: 5704 023f de77 aebc 8f09 6ec0 dd5f 313e
00000340: 3005 3bc0 69c5 333f 31b6 35c0 1835 06bf
00000350: 2191 643f 9b7f 0abe 7768 3d3e b652 19bf
00000360: 1ec1 95be 96a6 a1be a7ea 1ac0 6aa3 4e3f
00000370: eb2b bbbe 6131 af3e bc58 adbe e450 0d3e
00000380: fcae 21c0 f135 2e3f 1e7b 0c3f a462 1ec0
00000390: c382 67bf 7cb7 a43e 3a0c 803f bdf9 a3bf
000003a0: 1bc1 2ac0 44d4 e0bf 329d 5bc0 0785 0039
000003b0: 101a 8ebd 2860 aa3d 8876 ca3f da85 5b3e

l3.bias f4 [30]
-0.030206231 -0.5587746 0.14064957 -0.5073266 0.298932 -0.5027912 0.49301887 -0.39177537
0.44447324 -0.39812213 -0.33020127 -0.06325292 -0.055615924 -0.22601257 0.09236488 0.09827305
-0.1722119 -0.33492103 0.07634284 -0.5453969 0.791633 -0.5668772 0.090082794 -0.37238032
-0.06440906 0.7848787 0.58438176 -0.24969147 0.30932897 0.5845564
00000000: 0f73 f7bc da0b 0fbf 7106 103e 28e0 01bf
00000010: 9d0d 993e edb6 00bf f86c fc3e c896 c8be
00000020: ff91 e33e aad6 cbbe 2410 a9be bf8a 81bd
00000030: 86cd 63bd d76f 67be cc29 bd3d 6143 c93d
00000040: 5158 30be c57a abbe a359 9c3d 229f 0bbf
00000050: 76a8 4a3f dd1e 11bf 547d b83d a2a8 bebe
00000060: e6e8 83bd cfed 483f 0b9a 153f 1faf 7fbe
00000070: 5e60 9e3e 7da5 153f
