data.pth (torch, 13418 bytes, 6 tensors)

l1.weight f4 [8, 175]
00000000: f9bb 92be 5505 fa3e 9109 fa3e 5c0a 683e
00000010: e31f 1b3f 61cc 973f 1bfe 44be dbe7 233f
00000020: bb17 d73e 07c3 213e c013 8abe b6a0 0dbd
00000030: 23f0 9a3e db78 993e cffc 513f d7aa 833f
00000040: 642d d33e 7511 473e b623 22bf 5174 b6bd
00000050: 1cbd c83d 745a 9a3f 1a7d 33be f12e d53f
00000060: 407e 763f 95c7 f63e 1ae7 99bd c669 9c3f
00000070: 0291 103d f03a 783f 5cff ba3e 5722 a9be
00000080: 61a6 e1bb 6f19 033e b10d 78bf d37f c13e
00000090: 5ae5 8c3f d723 613e 14b4 24be 4bb2 873e
000000a0: 73fc 013d ed58 bbbe 83a1 733f 4273 d53f
000000b0: c142 553f b345 133e 583c 32bf fd31 f4bd
000000c0: 49ef 31bf bcb2 31bf acf4 733f 4f3f 94be
000000d0: 6cc1 bf3e c3ca 963f b151 823f ef8e a63c
000000e0: ef0f 053e a48c 353e a689 0d3f 6519 e23e
000000f0: a573 2b3d 6170 45bd 1aa5 a5bd d255 2b3e
00000100: 618f ae3f dc10 be3e f91f 90be abf3 b93f
00000110: 4cf0 a83f df61 5a3e 8ee5 92be ba0f a9be
00000120: 9470 923f d7fe 193f b39f ef3e aaa8 c13d
00000130: f8f1 cdbd a9fe d23e 1cc5 32bf bec2 98be
00000140: c2fe 03be bcea 32bd 6c38 0fbe 0888 0cbf
00000150: 7bcd bb3f 1f57 0e3f 3d8a 803d 895a 9a3f
00000160: 4bf9 543f d9cf 7ebe cc3f ab3e 1bf3 893f
00000170: 5fee a03d 7004 32bf 9274 5b3f e40c 533f
00000180: dbd2 823f c0f6 453f d4bd 9a3e 6f05 3c3f
00000190: a1b8 103e 2544 8cbe ba69 0bbd 062f 1b3f
000001a0: 08fe 963f 44ad 933c c135 283f 4345 303f
000001b0: 721e 9f3e 4da2 933e 5d60 0ebe 1672 2d3f
000001c0: e01e 54bd 0b6c d0be e3fe 113c 059c 353f
000001d0: 2471 493f 5ec8 ca3d cfe7 7bbe 3af5 75be
000001e0: 95b4 b8bd 44bb b13e 2e2a eb3f bbaf 2f3e
000001f0: 6d23 523c 9ad9 c2bc 6497 24be 7c68 aa3d
00000200: 69ad 0a3e 98e5 b93e 0745 de3d a869 643f
00000210: 50e3 2abe 7e01 afbe 5f6b 493e 45a8 503f
00000220: 550d 32bf c397 cf3e 5b0f cebe 3996 5b3f
00000230: b1c4 9b3f 3613 2d3f ed5f cdbd 245e 2b3f
00000240: 9f58 8d3e c967 b6be b7bb b0bc ea0f 423f
00000250: ed4f f73d 4827 423e ee34 393f 9887 7e3d
00000260: 24dc 793e 9ee7 433e b122 063f 1e7c 5b3f
00000270: f5ac c8bd 040e b83e 4e8a 7a3f 8eb5 553e
00000280: f47c bcbe ec8c da3e a1a3 283f d64d 3b3e
00000290: b166 a93e 2c4c 16be d2c9 603f 5507 8a3d
000002a0: 2474 333f 1e36 613f fc12 113e 173e 533f
000002b0: 044e 65be 99b9 7bbc 649c 8abe 27fa 9bbe
000002c0: 7a94 0e3f be04 e13e 465f e8bd 979a c9be
000002d0: 7f09 35bf d9d8 a73e 97a5 aabe a2cd e53e
000002e0: 00b4 db3e 4f9c c3be 401f 4eba 12e2 263e
000002f0: 27c5 a73e 5a52 143e beb7 b93f eff4 4e3f
00000300: 94a3 053f df92 42bf bb8f 6c3e 47e7 4e3e
00000310: efd9 833f 70b0 0e3f 96ae 7d3e a847 00bf
00000320: 640f 193f 53f2 68bf bc81 7b3f e127 953e
00000330: fcc0 bbbf b014 cc3e 56fa 28be 58bb bfbd
00000340: e570 533f 2d38 713f 642d d03e 92fe 8abf
00000350: 9a42 0c3f 09a7 85be 3f3e 9d3e 22df d53f
00000360: eec1 74be aaab 00bf c00e bd3f b159 df3f
00000370: 3ac6 8e3e 90a2 febe c6d2 303e fe40 d9be
00000380: 1b0a f9be e8e5 243f 8b36 c4bc 62ce 183f
00000390: 62c1 be3f b7d2 a1bd ba9c 8f3f 1e3a 4e3e
000003a0: c2ee 2a3f 4684 75bc 3a1c 9b3f c503 c13f
000003b0: af67 433c fe32 1f3f d4db 833e 30d5 28be
000003c0: e99e ed3b eb00 3d3e d829 c03e c221 713e
000003d0: 2a2a fb3e b7d6 f1be 9a5c f3be e1f8 5b3f
000003e0: 4041 93bd 6267 723f 007b d7bd 599c 1e3e
000003f0: 7025 4ebe 274b ffbe 649d bdbe 0125 273d
-0.28659037 0.48832193 0.48835424 0.22660202 0.6059553 1.1859246 -0.19237559 0.6402566
0.42010292 0.15797053 -0.26968193 -0.034577094 0.30261335 0.29975018 0.8202638 1.0286511
0.41245568 0.19440253 -0.6333574 -0.08908904 0.09801695 1.2058854 -0.17528191 1.665495
0.9628639 0.48199144 -0.07514782 1.221978 0.03529454 0.9696493 0.3652295 -0.33034012
-0.006886289 0.12802671 -0.9689589 0.37792835 1.1007493 0.21986328 -0.1608432 0.26503214
0.031734895 -0.36591282 0.9516832 1.6675799 0.83304983 0.14382057 -0.6962333 -0.11923597
-0.69505745 -0.6941335 0.95295215 -0.2895455 0.37452257 1.1780628 1.018118 0.020331828
0.1299436 0.17729431 0.5528816 0.4416 0.041858334 -0.048202876 -0.08088131 0.16731957
1.3637506 0.37122238 -0.28149393 1.4527487 1.3198333 0.21326397 -0.2869076 -0.3301981
1.1440606 0.6015448 0.46801528 0.09455998 -0.100559175 0.41209915 -0.69832015 -0.29836076
-0.12890151 -0.04368089 -0.13986367 -0.5489507 1.4672083 0.55601686 0.06276367 1.2058879
0.8319289 -0.24883975 0.3344711 1.0777315 0.07857966 -0.6953802 0.8572475 0.82441545
1.0220598 0.77329636 0.30222952 0.7344579 0.1413293 -0.2739574 -0.034036376 0.6061863
1.1796274 0.018026955 0.6570702 0.68855685 0.31077915 0.28834763 -0.13903947 0.67752206
-0.051787257 -0.4070743 0.008910867 0.7094119 0.78688264 0.09901498 -0.24600147 -0.24019328
-0.09018818 0.34713185 1.8372247 0.1715688 0.012825829 -0.023785401 -0.16073376 0.0832071
0.13542713 0.3630798 0.1085301 0.8922372 -0.16688275 -0.34180826 0.19669865 0.8150676
-0.69551593 0.40545473 -0.4024609 0.85776097 1.21694 0.6760744 -0.10028062 0.6694052
0.27606675 -0.35626057 -0.021573884 0.7580553 0.120757915 0.18960297 0.7234639 0.06214103
0.24400383 0.19131324 0.52396685 0.8573626 -0.09798614 0.35948193 0.97867286 0.20870039
-0.36814082 0.4268564 0.6587468 0.18291411 0.3308616 -0.14677495 0.87807953 0.0673968
0.7009909 0.879732 0.14167398 0.82516617 -0.22393042 -0.015364074 -0.27072442 -0.3046429
0.5569531 0.4394893 -0.11346297 -0.39375755 -0.70717615 0.3278263 -0.3332946 0.44883448
0.42910767 -0.38205191 -0.0007862933 0.16297176 0.32767603 0.1448454 1.4509199 0.8084249
0.52202725 -0.7600536 0.23101704 0.20205413 1.0300883 0.5573797 0.2477363 -0.5010934
0.5978911 -0.9099476 0.98244834 0.29131988 -1.4668269 0.39859533 -0.16501746 -0.09361905
0.8259414 0.9422634 0.4065963 -1.0858939 0.54789126 -0.26104 0.30711553 1.670872
-0.23902103 -0.5026194 1.4770126 1.7449247 0.2788561 -0.497334 0.17267904 -0.42432398
-0.48640522 0.6441331 -0.02395179 0.59689915 1.4902766 -0.07901519 1.1219704 0.20139357
0.66770566 -0.01498515 1.2117989 1.5079275 0.011926576 0.6218718 0.25753653 -0.16487575
0.0072516096 0.18457381 0.37531924 0.23548034 0.49055606 -0.47234127 -0.47531587 0.85926634
-0.0719018 0.94689 -0.10521507 0.1548933 -0.20131469 -0.49862024 -0.37034142 0.040806774

l1.bias f4 [8]
00000000: 5b2d 2a3f 0d24 f13e b853 1d3f d8bc 753f
00000010: 45a0 273f f57d 6e3f 454f b63e f216 ab3f
0.66475457 0.47097817 0.6145587 0.9599128 0.65478927 0.93160945 0.35607353 1.3366377

l2.weight f4 [8, 8]
00000000: 305a 13be cfab fabe 10c1 db3e 9a60 0940
00000010: 4a8d f8be eb90 45bf aa3d 0440 d372 cb3f
00000020: 2518 883f f78c 52bf aade b93f 352d 213f
00000030: 12fe be3f 6509 873f 0749 11bf cc98 cfbe
00000040: 8102 afbe 3229 44bf 7418 e7bf 6ee1 cd3f
00000050: afe2 21bf cf6b 2d40 f256 5dbf 3d9f 0d40
00000060: 53e1 f43c ef3e 953f b179 c63f 90d2 973f
00000070: 01ea 73bd eed4 433f 1153 013e 3e80 2dbf
00000080: 02f5 d03f 834b 95bf 6148 a2bf c580 813e
00000090: e38f 0540 d2cf 2cbf 3fed 2cbf 391c 3b3f
000000a0: c105 733f 28b0 fc3f 6e6f b13f 4733 aabf
000000b0: f52d 923f acb2 d13f 5b15 33bf 431c 573f
000000c0: 2aee e03e 87d1 f93f 5b4f 843e 6f06 49bf
000000d0: 7193 0d3f 9961 363f f43d 413f 3923 e23e
000000e0: 020b ba3f 92ad 33bd 67c6 64bf b6dd 133f
000000f0: 21d8 ddbd fba2 a4bf d8e5 dc3f 0f42 4f3f
-0.14389873 -0.48959205 0.42920732 2.146521 -0.48545295 -0.7717425 2.0662637 1.5894417
1.0632368 -0.82246345 1.4521077 0.62959605 1.4921286 1.0549742 -0.56752056 -0.40546262
-0.34181598 -0.7662536 -1.8054338 1.6084421 -0.63236517 2.709705 -0.86460793 2.2128441
0.0298926 1.1659831 1.5505887 1.1861134 -0.059549335 0.7649678 0.12629344 -0.6777381
1.632477 -1.1663669 -1.2678338 0.25293556 2.0869071 -0.6750461 -0.6754951 0.7308994
0.94930655 1.9741259 1.3862131 -1.3296899 1.1420275 1.6382651 -0.6995446 0.840275
0.43931705 1.9517068 0.25841793 -0.7852544 0.553031 0.7124267 0.7548516 0.44167498
1.4534609 -0.0438667 -0.8936524 0.5776018 -0.10832239 -1.2862238 1.7257643 0.8096017

l2.bias f4 [8]
00000000: c7d3 fd3d cad9 19bf 9fc8 be3f ce4a e2bc
00000010: b272 623f b596 00bf dea6 abbe 0bfb 203e
0.12393909 -0.60097945 1.4904975 -0.02762356 0.8845626 -0.5022996 -0.33525747 0.15720765

l3.weight f4 [30, 8]
00000000: 3072 35c0 8477 74bd a407 48c0 5e27 09bf
00000010: 7fed 0a3f f281 863e 42f1 3a3e 3c0a 85be
00000020: 9f91 29c0 952f b13c e60f 0cbf 06cd 9bbf
00000030: 11e3 333d 3e87 433e 22c2 24be ad43 ca3d
00000040: 8e98 c03d 2f0e f23d 0758 8f3e 15b1 803f
00000050: 6d7b 02c0 4384 1bbf 326b 1cc0 c8dc 1dc0
00000060: 0b96 143e 3934 d0be 276e 043f 76df 4fbe
00000070: c8d9 ccbf f49f 41bf e8b5 a4bf 476e 85bd
00000080: 2d96 173f f9e6 bd3e 19dd 56c0 754d 923e
00000090: b852 3e3e c840 e0bf da08 b6bf 353b e63e
000000a0: b395 6b3e 3082 7f3e 3932 5fbe 9cc7 a9be
000000b0: 345c 373f 83b1 54c0 9bd2 13c0 f13d 443e
000000c0: 2f6f 76c0 d00a 2b3f c358 87bf ec71 8dbf
000000d0: a6d4 b4be 6296 423f 4ab5 2cbd c951 5fc0
000000e0: f655 22bf 2ba0 703c eb0a 0cbd 0eb8 12bf
000000f0: 7a68 233e 7398 4e3b d3d1 a6be 3dc5 07c0
00000100: 3317 293f 651e a2bf 5d1f 83be aca7 aebf
00000110: 47bd 603e 57b4 6bc0 3c31 aabf a2ff 633f
00000120: 9890 2e3f 1f44 e9be 4bef 0dbf 956d 3f3c
00000130: 9f4d b3bf 5f2f c5bf 2ab2 8cbe 426b eb3e
00000140: b89f 48c0 b631 363e aaa4 ff3e e787 ad3e
00000150: 09fc 48c0 b81e 7b3e f8c3 cebe 1590 07c0
00000160: 3535 1c3e 1e73 77bd d31b 4f3e 408a 41bf
00000170: 1588 5ec0 a66c 503e 1514 fcbe 0a32 cbbf
00000180: a7fc 553e e6c6 3ac0 9249 60bf 68dc db3e
00000190: a022 9bbf d6ab 1a3f 473c a83e dc9f 36c0
000001a0: 8917 153f 9470 6dc0 d17f 903e fc14 07bf
000001b0: 7dcd 32c0 04dd 25bf f3a7 09be fc69 9a3b
000001c0: 2865 15c0 5bb1 0cc0 a923 26c0 64d9 a33e
000001d0: a997 a7bf eebd 283f 464e 1d3f 5ed6 b23e
000001e0: fec6 663e ed8e 0bc0 b24d b8bf 38a0 e1bd
000001f0: b9c7 4ec0 0b7b b0be 415a b53e 96ed 783f
00000200: 1eec 943e 93ad 193e 6746 b4bf 0cf0 90be
00000210: 620a bebf c002 2b3e a877 6bbe 4146 84be
00000220: 08d8 943d 15dd 8d3d 605c 3ec0 d601 1d3c
00000230: d397 56bf d54d 883d bf3d 823e bb6c c3bf
00000240: 723a 87bf aeaf 393e 30f9 e4bf d057 35c0
00000250: 3d93 493f b8c5 a73e 3b8f 6bbe bd92 ab3d
00000260: 9aac eabe e39b 3cbe 4c5d 123e 4642 2fc0
00000270: bf87 4f3e fb3a 8abe 1c50 cfbe 450f 043e
00000280: 1159 a2be 126e debe d74d 56c0 4a27 a9bf
00000290: ccab 77be 0804 683e 9fca a23e 2124 5a3f
000002a0: 1ca8 6d3d db97 cbbf 4106 2ebf f156 f6bf
000002b0: 34b7 d7be 08ba 11be 348b 8f3e 91c3 263f
000002c0: f174 50bf 274d 463f cb3c 81bf 52eb 583e
000002d0: 4c04 3e3f 6583 f1be 26a2 b6bf 8bcd aebe
000002e0: 0090 c33e fbec b7bd a58d 93bf 689a 16c0
000002f0: 383d 283f 03db 4fbf 13cf 54bf 4750 253f
00000300: 52b4 39c0 b96e e23e 0b3b 443f 197d 70c0
00000310: a3e0 733f 5c7d c5bc 301d 38bf d83c c2bf
00000320: 0217 bebe a6e7 1ac0 905e ac3f 44f3 b1bf
00000330: d253 aebf ea57 cbbd 32c2 2bbe 2caa 3ec0
00000340: 5ca4 6b3f dacc b6bd d9c5 1b3f 474b 513f
00000350: cf94 4dc0 d904 85c0 24d3 02c0 b3b2 b3bc
00000360: 3755 073d c805 fabc 83bb 613f 734b bcbf
00000370: 791b 903e 09b5 59bf 9aea f4bf 39c1 9fbf
00000380: 5041 2a3f ce54 f2bf 94e7 993f ecee f5bf
00000390: 3ac2 14be f8f9 45c0 34f7 7fc0 7882 2b3d
000003a0: f667 023d f46c 59bf 3975 ed3e 5e4a a9c0
000003b0: 958f 843f b1d4 42bf 7b6f 2fc0 03f6 083f
-2.8350945 -0.05968429 -3.1254663 -0.53575695 0.5426864 0.26271015 0.18256095 -0.2598437
-2.649513 0.021629134 -0.5471176 -1.2171943 0.04391772 0.1909456 -0.16089681 0.098761894
0.094040975 0.118191116 0.27996847 1.0054041 -2.0387833 -0.6074869 -2.4440427 -2.4666004
0.14510362 -0.40664843 0.5173058 -0.20300087 -1.6003962 -0.75634694 -1.2868013 -0.06515174
0.59213525 0.3709028 -3.3572447 0.2857472 0.18586242 -1.751977 -1.4221451 0.44967046
0.23006324 0.24952006 -0.21796502 -0.33160102 0.71625066 -3.3233345 -2.3097293 0.19164254
-3.850536 0.66813374 -1.0573963 -1.1050391 -0.35318488 0.76010716 -0.04216508 -3.4893668
-0.63412416 0.0146866245 -0.0341901 -0.57312095 0.15957823 0.0031523972 -0.32581958 -2.1214135
0.66051024 -1.2665526 -0.25609866 -1.3644919 0.21947204 -3.682882 -1.3296275 0.8906194
0.6818938 -0.45559785 -0.5544326 0.011683841 -1.4008063 -1.5405082 -0.27479678 0.4598027
-3.1347485 0.177924 0.49930316 0.33892748 -3.140383 0.24523437 -0.40383887 -2.118169
0.15254672 -0.06041252 0.20225458 -0.7560158 -3.4770558 0.20353946 -0.4923407 -1.5874646
0.2089716 -2.9183898 -0.8761226 0.42941594 -1.2119942 0.6041845 0.32858488 -2.853507
0.58239037 -3.7099962 0.28222516 -0.52766395 -2.793792 -0.6479037 -0.13442974 0.0047123414
-2.334299 -2.198325 -2.5959265 0.32001793 -1.3093158 0.6591481 0.6144756 0.34929174
0.22536847 -2.1805985 -1.4398711 -0.110168874 -3.23094 -0.34468874 0.3542042 0.9723753
0.29086393 0.1500762 -1.4083985 -0.2830814 -1.4846919 0.16700268 -0.22994864 -0.2583485
0.07267767 0.06926934 -2.9743881 0.009582957 -0.83825415 0.0665547 0.25437734 -1.5267557
-1.0564711 0.18133423 -1.7888546 -2.8334846 0.7874029 0.32768035 -0.23003857 0.083775975
-0.4583481 -0.18418841 0.14293402 -2.73842 0.20266627 -0.26998124 -0.40490806 0.1289645
-0.31708577 -0.43443352 -3.348501 -1.3215115 -0.24186629 0.22657788 0.31795213 0.8521138
0.05802165 -1.5905718 -0.6797829 -1.9245282 -0.4213196 -0.14231122 0.2803589 0.6514216
-0.8142844 0.77461475 -1.0096678 0.21183518 0.74225307 -0.4717056 -1.4268234 -0.34141192
0.381958 -0.08980747 -1.1527601 -2.3531742 0.6571841 -0.8119356 -0.8312847 0.6457562
-2.9016309 0.442251 0.7665259 -3.7576354 0.95264643 -0.024107628 -0.71919537 -1.5174818
-0.3712693 -2.4203887 1.3466358 -1.3902364 -1.361933 -0.09928878 -0.16773298 -2.9791365
0.9204767 -0.08925791 0.60848767 0.8175549 -3.2122076 -4.1568418 -2.044137 -0.021935796
0.03304025 -0.030520335 0.88176745 -1.4710525 0.2814596 -0.8504186 -1.9134095 -1.2480842
0.6650591 -1.893213 1.2023797 -1.9213538 -0.14527217 -3.093382 -3.999463 0.04187247
0.031837426 -0.84931874 0.46378496 -5.290328 1.0356318 -0.7610579 -2.7411792 0.53500384

l3.bias f4 [30]
00000000: 8044 ea3c 08ea 21bf db87 6a3d 8f41 58bf
00000010: 428b b6bd 59a5 1fbf a63e d23e a3da 13be
00000020: f31b 853e 0445 b1be 6b0b 42be 9dda 64be
00000030: 6ee1 b33e b1bf 873e c2dc 653e 8b6b 183f
00000040: c00b 01be e2bf 823e 06c5 a9be 9aee 9ebf
00000050: 28d3 1b3e f1f3 8f3e 9ab5 afbc 624b 1dbf
00000060: aca0 7d3e b9b1 753f 0459 023f 7f27 853e
00000070: 4cdd 57bd d5aa 2a3f
0.028597116 -0.6324773 0.057258468 -0.84475034 -0.0891328 -0.62361676 0.41063422 -0.14438872
0.25997886 -0.34622967 -0.18949668 -0.2234902 0.35132927 0.26513436 0.22447494 0.595391
-0.12602139 0.2553702 -0.3315813 -1.2416565 0.15217268 0.281158 -0.021448899 -0.6144315
0.24768323 0.9597431 0.5091708 0.26006696 -0.05270128 0.6666692
